robot/doosan/compensation.pth (torch, 40703 bytes, 6 tensors)

net.0.weight f4 [64, 7]
0	0xbe7d4b6b	-0.24735801
1	0x3f2f8e63	0.6857664
2	0x3e9dd995	0.30830064
3	0xbdb8df0d	-0.090269186
4	0xbea4346b	-0.32071242
5	0xbe1de0b7	-0.15417753
6	0xbe0e1e6d	-0.13878794
7	0x3eca9717	0.39568397
8	0xbf372ff1	-0.7155753
9	0x3d752d34	0.059857562
10	0xbcce7162	-0.02520055
11	0x3eaa98c3	0.33319673
12	0x3e9b171a	0.30291063
13	0x3e0cdf0c	0.1375696
14	0xbd7f839f	-0.062381383
15	0x3f4e0ca1	0.8048802
16	0x3e71000a	0.23535171
17	0x3e655cba	0.22398654
18	0x3ec29c00	0.38009644
19	0xbe893274	-0.26796305
20	0xbb2f9d82	-0.0026796763
21	0xbd7a2448	-0.061069757
22	0xbf29c324	-0.66313386
23	0x3db8abf4	0.090171725
24	0xbec6214a	-0.38697273
25	0xbe8e112b	-0.27747473
26	0x3ccd36c5	0.02505053
27	0x3e8bb04e	0.27282947
28	0xbec6fe20	-0.38865757
29	0x3f2d4285	0.67679626
30	0x3cd1f52a	0.025629599
31	0xbec2c63c	-0.38041866
32	0x3eb0348d	0.34415093
33	0xbeae98dc	-0.34100997
34	0x3e8f4004	0.27978528
35	0x3e12c2f7	0.14332186
36	0x3ed91b48	0.42403626
37	0x3eb826a9	0.35966995
38	0x3e8512ff	0.25991055
39	0x3e0ac2bd	0.1355085
40	0x3e95470b	0.29155764
41	0x3dff8ea4	0.124783784
42	0xbf48e9b8	-0.78481627
43	0x3eec1dc9	0.46116474
44	0xbe2ebf23	-0.170651
45	0xbc41a43b	-0.011818941
46	0xbdd8ac79	-0.105797715
47	0xbdf1abd5	-0.118003525
48	0xbe6bfccb	-0.23045652
49	0x3ecbcb16	0.3980338
50	0xbeed1323	-0.46303663
51	0x3e51b248	0.20478165
52	0xbe22d4d7	-0.15901504
53	0x3e31ccff	0.17363356
54	0x3d8345f8	0.0640983
55	0xbea7e976	-0.32795304
56	0x3e83bdc4	0.25730717
57	0xbf48c5e6	-0.7842697
58	0xbeddfd51	-0.43357328
59	0x3e3b0d70	0.18266845
60	0x3e94ebdd	0.290862
61	0xbd1a94c3	-0.037739526
62	0x3d6e5690	0.05818802
63	0xbf447af8	-0.76750135
64	0xbe435670	-0.19075942
65	0x3d74e4cc	0.05978851
66	0x3e085cec	0.13316697
67	0x3dc4ac00	0.09603119
68	0xbe821ccc	-0.25412595
69	0x3e064587	0.1311246
70	0x3e8ac3cc	0.27102506
71	0xbe852c46	-0.2601034
72	0x3d88d3e0	0.06681037
73	0x3e4971a2	0.19672254
74	0x3e5cef6e	0.2157571
75	0xbd89fad8	-0.06737298
76	0xbe8feb15	-0.2810904
77	0x3ea8771e	0.3290338
78	0xbf143872	-0.5789863
79	0xbea62e82	-0.32457358
80	0xbceb23dc	-0.028703623
81	0x3e481be2	0.19541886
82	0x3e4c0791	0.19924761
83	0xbeb78686	-0.3584482
84	0x3ef6c009	0.48193386
85	0x3f58c002	0.8466798
86	0xbde3d8a8	-0.11125308
87	0x3eb97027	0.36218378
88	0x3ed2701d	0.4110116
89	0xbeb0e812	-0.34552056
90	0xbe253ca5	-0.16136415
91	0x3e9ac8b0	0.30231237
92	0xbda0580b	-0.07829293
93	0xbec1a308	-0.37819695
94	0x3ea0dff3	0.3142086
95	0x3e561998	0.209082
96	0x3e87e906	0.2654497
97	0x3dd058de	0.101732
98	0xbf37c4ac	-0.7178447
99	0xbdb133e4	-0.086524755
100	0xbe8b085d	-0.27154818
101	0x3e70e0ef	0.23523305
102	0xbe180018	-0.14843786
103	0xbe856462	-0.26053149
104	0xbe8f1c7e	-0.27951425
105	0xbf44f9fe	-0.7694396
106	0x3eccf097	0.40027305
107	0xbe86fcf7	-0.26364872
108	0xbe26f296	-0.16303477
109	0xbeb3f06e	-0.3514437
110	0xbe24d309	-0.16096129
111	0x3dc876fa	0.09788318
112	0x3f16eddb	0.5895669
113	0xbf46d898	-0.77674246
114	0x3dba72e3	0.09103944
115	0xbe552ea3	-0.20818572
116	0x3eb9cef2	0.362907
117	0x3e7c796f	0.24655698
118	0xbe4cfaaa	-0.20017496
119	0xbdd24e53	-0.102688454
120	0xbee42194	-0.44556868
121	0x3e519222	0.20465901
122	0xbec74d64	-0.38926232
123	0xbdbc0b0c	-0.091817945
124	0xbcae28f1	-0.021259757
125	0x3d275df1	0.040861074
126	0xbece6d90	-0.40317965
127	0x3eafc939	0.34333208
128	0x3e03b326	0.12861308
129	0xbe797a91	-0.24363162
130	0xbe8d79a1	-0.27631858
131	0x3ea3a529	0.31961945
132	0x3ea609ed	0.32429448
133	0x3e872abd	0.26399794
134	0xbe300519	-0.17189445
135	0xbe828202	-0.25489813
136	0x3e863a51	0.26216367
137	0xbe1d3b54	-0.15354663
138	0x3e982db4	0.2972237
139	0xbdc270ea	-0.09494193
140	0xbdac0699	-0.08399696
141	0x3edacf40	0.42736244
142	0xbe6aecf1	-0.22941948
143	0x3ebc503a	0.36779958
144	0xbcaa6728	-0.020801142
145	0xbe8be9cb	-0.27326807
146	0xbd4a9ad8	-0.049464077
147	0x3f39ad8a	0.72530425
148	0xbed5debe	-0.417715
149	0x3d723c78	0.0591397
150	0x3e95d0aa	0.2926076
151	0xbe3d2d37	-0.1847428
152	0x3dd2db9f	0.10295796
153	0xbe57f84d	-0.21090813
154	0xbeab9f94	-0.33520186
155	0x3ea6de3f	0.32591435
156	0xbc1ce525	-0.009576117
157	0xbe558c6e	-0.20854351
158	0x3e1c05cb	0.15236585
159	0xbc8ef903	-0.017452722
160	0x3ea4d6ff	0.3219528
161	0x3f14ae1e	0.5807818
162	0x3f22cdf2	0.635955
163	0xbe23ea81	-0.16007425
164	0x3e8bef75	0.2733113
165	0xbe0767e3	-0.13223223
166	0x3e6432d6	0.22285017
167	0xbe70b662	-0.23507074
168	0x3f3a0cf3	0.7267601
169	0xbe7dd14a	-0.24786869
170	0xbe8d6e89	-0.27623394
171	0xbe26acbf	-0.16276835
172	0x3ea4b70a	0.32170898
173	0x3eac1158	0.33606982
174	0x3def66ce	0.1168953
175	0x3e6761da	0.22595921
176	0x3f247660	0.64243126
177	0x3e59a3af	0.21253847
178	0x3e10b77a	0.14132491
179	0x3e831c7a	0.25607663
180	0x3e486b39	0.19572152
181	0xbe999a51	-0.30000547
182	0x3f4324e9	0.76228195
183	0xbf5236fc	-0.8211515
184	0xbcca9115	-0.024727384
185	0x3e617b31	0.2201965
186	0xbe6d72c5	-0.23188312
187	0x3dfb1558	0.1225993
188	0x3e4f8e00	0.20269012
189	0x3f2d07a6	0.67589796
190	0xbf671251	-0.90262324
191	0xbddf5353	-0.10904565
192	0xbe2bb6a3	-0.16768889
193	0xbe0f06c9	-0.13967432
194	0xbea6a53e	-0.32547945
195	0x3e90cc02	0.28280646
196	0x3f12ad2c	0.5729549
197	0xbf070d9a	-0.5275513
198	0xbdf1363a	-0.11777921
199	0x3e1b92a8	0.15192664
200	0x3e66ca35	0.22538073
201	0x3d3d5487	0.04622319
202	0x3e46184b	0.19345205
203	0xbf1f027a	-0.62113154
204	0x3ecf7572	0.4051929
205	0xbe26caa4	-0.16288239
206	0xbeb6d675	-0.35710493
207	0xbd6036a7	-0.05473962
208	0x3eb2c986	0.34919375
209	0x3e5258d0	0.20541692
210	0xbe655cbd	-0.22398658
211	0xbf25ab1f	-0.64714235
212	0xbd80700f	-0.062713735
213	0xbe979cfb	-0.29611954
214	0x3e36d62c	0.17855138
215	0x3e66b480	0.22529793
216	0xbc232bf3	-0.009959209
217	0x3d9425a2	0.072337404
218	0x3eef05f6	0.46684235
219	0x3e9429c4	0.28938115
220	0x3e001d32	0.12511137
221	0xbec469a2	-0.3836184
222	0xbe0fd442	-0.14045814
223	0xbcc68db7	-0.024237497
224	0xbf0f2b19	-0.55925137
225	0x3cea458e	0.02859762
226	0xbe7bf21b	-0.24604075
227	0x3e91b389	0.28457287
228	0xbe4dd858	-0.2010206
229	0xbd23371e	-0.039847486
230	0x3c243bd6	0.010024032
231	0xbf326a93	-0.6969387
232	0xbabfde22	-0.0014638344
233	0x3e02ecfb	0.12785713
234	0xbe0dd6f0	-0.13851523
235	0xbd4d4dde	-0.050123088
236	0xbe9e970b	-0.30974612
237	0xbbc05f14	-0.005870709
238	0x3f2f77f7	0.68542427
239	0xbc8d4879	-0.017246472
240	0xbc6c342a	-0.014416734
241	0x3e4b04ed	0.19826098
242	0x3e975808	0.2955935
243	0x3eb6c873	0.35699806
244	0x3dab965f	0.083782904
245	0x3ebea3d3	0.37234363
246	0xbf6649bd	-0.89956266
247	0xbee0fbaf	-0.4394202
248	0x3dfcf53b	0.123514615
249	0xbe659931	-0.22421719
250	0xbe538899	-0.20657577
251	0xbe95bdfa	-0.29246503
252	0xbf2bd7cd	-0.6712616
253	0xbe5b6386	-0.21424684
254	0x3e29bc4d	0.16575737
255	0x3eb52ee9	0.35387352

net.0.bias f4 [64]
0	0xbe26ae8c	-0.16277522
1	0x3e661932	0.22470549
2	0x3d2d67f3	0.04233546
3	0xbe983c2d	-0.2973341
4	0xbe5fcd63	-0.21855693
5	0x3eb68c78	0.35654044
6	0xbd331b5b	-0.04372726
7	0x3e2cbec0	0.1686964
8	0x3db13508	0.08652693
9	0xbe356200	-0.17713165
10	0x3e22384c	0.15841788
11	0x3eafc017	0.3432624
12	0xbea73bf6	-0.32662934
13	0x3ec1d4f4	0.37857783
14	0xbe573910	-0.21017861
15	0x3e5b78f2	0.21432856
16	0xbc855b47	-0.016278876
17	0xbe7786f9	-0.24172582
18	0x3d2bba27	0.041925576
19	0x3df9ee59	0.12203664
20	0x3ec6a182	0.38795096
21	0x3e371f59	0.17883052
22	0xbe85d016	-0.2613532
23	0x3e8e6c3c	0.2781695
24	0x3df12829	0.11775238
25	0x3e9c4b7b	0.30526337
26	0x3cd3a023	0.025833195
27	0x3db3042b	0.08741029
28	0x3e9e6b12	0.30941063
29	0xbeafa7a9	-0.34307602
30	0xbe9f0f2d	-0.31066266
31	0xbebf78d2	-0.37396866
32	0xbec98b8f	-0.39364287
33	0xbe0d12bd	-0.1377668
34	0xbe3eab5f	-0.1862006
35	0x3de22820	0.110428095
36	0xbe8228cf	-0.2542176
37	0x3ec04ca5	0.37558475
38	0x3e831a46	0.25605983
39	0x3ed53af8	0.41646552
40	0xbe242e42	-0.16033271
41	0xbe889707	-0.26677725
42	0x3d0e8741	0.034796957
43	0xbe6eb627	-0.23311673
44	0xbdde1f9c	-0.10845873
45	0x3eb66e88	0.35631204
46	0x3e866c3d	0.26254454
47	0x3ed73bf9	0.42037943
48	0xbdac1a19	-0.08403415
49	0xbed08ce5	-0.40732494
50	0xbec6a80a	-0.3880008
51	0xbe4d626f	-0.2005708
52	0xbe85e149	-0.2614844
53	0x3e164058	0.14672983
54	0x3ec8f41a	0.39248735
55	0x3eadff91	0.33984044
56	0xbe672591	-0.22572924
57	0x3d1a4a57	0.037668552
58	0x3eb0778e	0.34466213
59	0x3e85206f	0.26001307
60	0xbc526a6d	-0.012842757
61	0xbe8b8d96	-0.2725646
62	0xbe438ea6	-0.19097385
63	0x3cc928fa	0.024555672

net.2.weight f4 [128, 64]
0	0xbdb8694c	-0.09004459
1	0x3dc3f04a	0.09567316
2	0xbdc84368	-0.09778482
3	0x3ce3d40e	0.027811076
4	0xbd9aa207	-0.075504355
5	0x3dda2b8e	0.10652839
6	0xbe80503c	-0.25061214
7	0x3e7389f4	0.23783094
8	0x3e7057c2	0.23470977
9	0xbe131080	-0.14361763
10	0xbcb1ae8c	-0.021689676
11	0x3e2b432f	0.16724847
12	0xbd5bac2f	-0.053631004
13	0x3c27c2cb	0.010239313
14	0xbe0aaa6e	-0.13541576
15	0xbe8f6052	-0.28003174
16	0x3e8a900c	0.27063024
17	0x3dd79b54	0.10527673
18	0xbda13824	-0.07872036
19	0x3e24c96e	0.16092464
20	0x3d958d62	0.07302357
21	0x3d6fb797	0.058524694
22	0xbd7c361e	-0.061575048
23	0xbc55fcfa	-0.013060803
24	0x3e1d9985	0.15390594
25	0xbac6108b	-0.0015111131
26	0x3e2d11e3	0.16901354
27	0x3eec0b83	0.46102533
28	0x3e806209	0.25074795
29	0xbe534953	-0.2063344
30	0x3c86fe5e	0.016478714
31	0x3b868631	0.0041053523
32	0xbe23d1dd	-0.15998025
33	0xbe802522	-0.2502833
34	0x3d0ec918	0.034859747
35	0x3e9a232c	0.3010496
36	0xbd90d9b4	-0.070727736
37	0xbe0bc1fc	-0.13648218
38	0xbe72cf41	-0.23711874
39	0x3d8a594c	0.06755313
40	0x3d9802b6	0.07422392
41	0xbcfa3f32	-0.030547712
42	0x3e18dd18	0.1492809
43	0x3ed80a7d	0.42195502
44	0xbc5aa4e3	-0.013344976
45	0x3e192f26	0.14959392
46	0x3c024ab6	0.007952383
47	0x3c775bde	0.015097586
48	0x3e5cbb59	0.21555842
49	0x3d9964be	0.07489918
50	0x3d1b02a4	0.037844315
51	0xbc05b0fe	-0.008159874
52	0xbda27b68	-0.07933694
53	0x3ce226f9	0.027606474
54	0xbd070706	-0.032965682
55	0x3dab2282	0.08356191
56	0x3dc309ec	0.09523377
57	0xbec80dc2	-0.39072996
58	0x3e106a6c	0.14103097
59	0x3e5b4390	0.21412492
60	0x3ea288f5	0.31745115
61	0x3c00cf16	0.007861873
62	0xbeb22d48	-0.34800172
63	0x3e412712	0.1886256
64	0xbe2fc77f	-0.17165945
65	0x3e057bdc	0.1303553
66	0xbd71d394	-0.059039667
67	0xbdf53403	-0.11972811
68	0xbddfe2ac	-0.10931906
69	0xbd9ece64	-0.0775421
70	0xbe0ed706	-0.13949212
71	0x3e36f7a4	0.17867905
72	0x3debb34a	0.11508806
73	0xbe44ace4	-0.19206578
74	0x3dea1be9	0.11431105
75	0x3e341586	0.17586336
76	0x3d8241a9	0.0636018
77	0x3e239f88	0.15978825
78	0xbe4457cd	-0.19174118
79	0xbe09fbcd	-0.1347496
80	0x3e81e3b3	0.25369033
81	0xbd001151	-0.031266514
82	0xbdaa5f14	-0.08318916
83	0x3d9c7988	0.07640368
84	0x3cfa3608	0.030543342
85	0x3e691a6c	0.22763985
86	0xbe5109de	-0.2041392
87	0x3e612a09	0.21988691
88	0x3e1a4354	0.15064746
89	0x3ceb1f83	0.02870155
90	0x3e8c4d55	0.2740275
91	0x3eaeabd3	0.34115466
92	0xbc98dcfc	-0.018660061
93	0x3cf2c59c	0.029635243
94	0x3d70cda9	0.058789883
95	0x3db80874	0.08985987
96	0xbe1be376	-0.15223488
97	0xbc4918a5	-0.012273942
98	0x3d67be96	0.05657824
99	0x3e7926f0	0.2433126
100	0xbe601417	-0.21882664
101	0xbd74700a	-0.05967716
102	0xbe86e72c	-0.26348245
103	0x3d8383dc	0.064216346
104	0xbde09d9f	-0.10967564
105	0xbd2d2de9	-0.04228011
106	0x3e3c0778	0.18362224
107	0x3ee5b14a	0.44861823
108	0x3d3ed76a	0.046592154
109	0x3e873571	0.2640796
110	0x3e492dc0	0.19646358
111	0x3e080df1	0.13286568
112	0x3e0052e1	0.12531616
113	0xbb98466e	-0.0046470677
114	0xbd37915a	-0.044816352
115	0xbd81fe16	-0.06347291
116	0xbe0403d7	-0.1289209
117	0x3e2e0f44	0.16998011
118	0x3db19373	0.08670702
119	0x3dce1c83	0.10064032
120	0x3ddf2692	0.108960286
121	0xbe9d143a	-0.30679494
122	0xbd923f67	-0.07140999
123	0x3e4069ca	0.18790355
124	0x3e804d69	0.2505906
125	0xbde9d58d	-0.11417685
126	0xbe9a8b2e	-0.3018431
127	0x3d6653f4	0.056232408
128	0xbe99dc34	-0.30050814
129	0x3ea474cc	0.3212036
130	0xbf053c25	-0.520449
131	0x3ec59500	0.3859024
132	0xbe7d57f3	-0.24740581
133	0xbe50eef2	-0.2040365
134	0xbe95dfc4	-0.29272282
135	0x3e7d8846	0.24759015
136	0x3e8e4c79	0.2779272
137	0xbe20df7c	-0.15710253
138	0xbd2de6ea	-0.042456545
139	0x3e62f59a	0.22164002
140	0xbea0447f	-0.31302258
141	0x3df627d4	0.12019315
142	0xbe3b0aa5	-0.1826578
143	0xbe19db2b	-0.15025012
144	0x3ec7726f	0.38954493
145	0x3e9e2cbc	0.30893505
146	0xbd6739c4	-0.056451574
147	0x3ddce19a	0.107852176
148	0xbe29be5b	-0.16576521
149	0x3d6673d9	0.056262825
150	0xbd42475c	-0.047431335
151	0xbe9117d6	-0.28338498
152	0x3df8876a	0.12135203
153	0xbe9e6511	-0.30936483
154	0x3effb37a	0.49941617
155	0x3f1aa616	0.6040968
156	0x3e73ccb2	0.23808554
157	0xbda31000	-0.07962036
158	0x3eb3522f	0.3502364
159	0xbdab3761	-0.08360172
160	0xbdf0fce9	-0.11766989
161	0xbde8196c	-0.11332974
162	0x3e036e28	0.1283499
163	0x3eee0fc2	0.46496397
164	0xbdb36f5e	-0.08761476
165	0xbeafa649	-0.34306553
166	0xbeaa34d4	-0.3324343
167	0x3bacbe07	0.0052716765
168	0xbd172ab0	-0.036905944
169	0x3e065c56	0.13121161
170	0x3dff4681	0.124646194
171	0x3f2aa8b3	0.66663665
172	0xbebe7b2a	-0.37203342
173	0xbeba82c5	-0.36427894
174	0xbeafe7fe	-0.34356683
175	0xbea7a059	-0.32739523
176	0x3d5cb76f	0.053885873
177	0x3cdbf50a	0.026850242
178	0x3e240354	0.16016895
179	0x3ecabfce	0.3959946
180	0xbeceeb15	-0.40413728
181	0x3e98811d	0.29786006
182	0xbdf38e30	-0.118923545
183	0xbebc29a5	-0.36750522
184	0x3ea8ac9a	0.32944185
185	0xbeaa232f	-0.33229968
186	0x3e3819bb	0.17978565
187	0x3db20513	0.08692374
188	0x3ec9bebf	0.3940334
189	0x3b96b4c7	0.004599187
190	0xbeccd3dc	-0.40005386
191	0x3e71c984	0.23612028
192	0x3e2dbb85	0.16966064
193	0xbe54352a	-0.20723405
194	0x3e1ff01f	0.15618943
195	0xbde136be	-0.10996769
196	0x3d83b6ae	0.06431328
197	0xbdde079d	-0.10841296
198	0x3e21ddc7	0.15807258
199	0xbcc4d765	-0.02402849
200	0xbe547471	-0.20747544
201	0x3dd2af12	0.10287298
202	0xbdeb36c0	-0.11485052
203	0xbdc7d757	-0.0975787
204	0xbd81a31c	-0.06329939
205	0xbd2fba82	-0.042902477
206	0x3e262194	0.16223747
207	0x3db1b240	0.086765766
208	0xbe96790c	-0.29389226
209	0xbd0d2df4	-0.034467652
210	0x3dca4fe8	0.09878522
211	0xbdfc4db7	-0.123195104
212	0x3e33ed8d	0.17571087
213	0xbe8605ea	-0.26176387
214	0x3e6d85f9	0.23195638
215	0xbc213423	-0.0098390905
216	0xbe15992a	-0.14609209
217	0x3df5c2da	0.120000556
218	0xbe66154f	-0.22469066
219	0xbebc115b	-0.3673199
220	0xbe10de28	-0.14147246
221	0x3ce9887d	0.028507465
222	0x3d50f5f5	0.051015813
223	0x3dcf2f4c	0.10116443
224	0x3e3eff0d	0.18651982
225	0x3e059084	0.1304341
226	0xbe1b22b2	-0.15149954
227	0xbef88a53	-0.48543033
228	0x3e1420c1	0.1446562
229	0x3e14e8c1	0.14541914
230	0x3eb2e6e5	0.34941784
231	0xbddd4621	-0.10804392
232	0x3e0cfb90	0.13767838
233	0x3dbdde47	0.09270912
234	0xbe22064b	-0.15822713
235	0xbf230643	-0.6368143
236	0xbdf21105	-0.118196525
237	0xbe0b4eed	-0.13604327
238	0xbcf4e83c	-0.029895894
239	0x3c8d9b2f	0.017285911
240	0xbc8dd8e2	-0.017315332
241	0x3dc4ac6b	0.096031986
242	0xbe276d17	-0.16350208
243	0xbe6ed1da	-0.2332224
244	0x3e23394a	0.15939823
245	0xbe1e64bd	-0.15468116
246	0x3d7504f6	0.059819184
247	0xbd427472	-0.047474332
248	0xbd1bd57e	-0.0380454
249	0x3e995c67	0.2995331
250	0x3bd96b1b	0.0066350824
251	0xbe80c5dc	-0.25150955
252	0xbe9f2d73	-0.31089363
253	0x3cd089e2	0.025456373
254	0x3edfe55e	0.4372968
255	0xbe79c12b	-0.24390094

net.2.bias f4 [128]
0	0x3db6f97d	0.08934305
1	0xbd1915bc	-0.037374243
2	0xbd8ab1f0	-0.0677222
3	0xbd83cf77	-0.06436055
4	0x3e3304a4	0.17482239
5	0x3982d982	0.00024957588
6	0xbaa4dba8	-0.001257767
7	0x3cb6c2bd	0.022309655
8	0xbdf6a5ab	-0.120433174
9	0x3dd8633b	0.10565802
10	0x3d5b05cf	0.053472336
11	0x3d2c2448	0.042026788
12	0x3dc01910	0.0937978
13	0xbcfc03b1	-0.030763479
14	0x3d118671	0.035528604
15	0xbe1ca916	-0.15298876
16	0xbc4e76e5	-0.012601589
17	0xbc1e3550	-0.009656265
18	0xbd908612	-0.07056822
19	0x3e0a8f83	0.13531308
20	0xbd850310	-0.06494725
21	0x3e63d397	0.22248684
22	0xbdee3c5a	-0.11632605
23	0xbcb600f6	-0.022217255
24	0xbade8aac	-0.0016978583
25	0xbe0f58fd	-0.1399879
26	0x3dd60e90	0.10451996
27	0x3dd57764	0.104231626
28	0x3d84e1c4	0.06488374
29	0xbcbe460f	-0.023226766
30	0xbe2e8ecd	-0.17046662
31	0x3de1d5af	0.11027085
32	0x3e1bca1f	0.15213822
33	0x3e28f5d7	0.1650003
34	0x3d21f316	0.039538465
35	0x3d6b5c69	0.057461176
36	0xbe2c4bba	-0.16825762
37	0xbd0af2d6	-0.033922993
38	0x3d3cdf98	0.046111673
39	0x3d187301	0.03721905
40	0xbc40dfac	-0.0117720775
41	0xbe018a79	-0.1265048
42	0x3dd8ef70	0.10592544
43	0x3d630476	0.055424176
44	0x3d1166cb	0.03549842
45	0x3d881e58	0.066464126
46	0xbd719005	-0.05897524
47	0xbdc17ce6	-0.094476506
48	0x3d302c5f	0.043011066
49	0xbd685c56	-0.056728683
50	0xbce7ad9a	-0.028281022
51	0xbc56419f	-0.013077169
52	0x3d47e7ef	0.048805173
53	0x3bf39e0f	0.0074346135
54	0x3ddd9e27	0.10821181
55	0xbd035506	-0.032063507
56	0x3d0d1a51	0.034448925
57	0xbd6cf396	-0.05784949
58	0x3e1a3264	0.15058285
59	0xbdaa9f75	-0.08331195
60	0x3daedabf	0.08537816
61	0x3e328010	0.17431664
62	0x3d78be87	0.060728576
63	0xbc3deb4c	-0.011591744
64	0xbde1dcff	-0.1102848
65	0x3cf0f41d	0.029413277
66	0x3d2201e2	0.039552577
67	0x3ccb76e9	0.024836974
68	0x3c2df022	0.010616334
69	0x3df90757	0.12159603
70	0x3d5d18fb	0.0539789
71	0x3d86082a	0.06544526
72	0x3c55906a	0.013034919
73	0x3c224f58	0.009906612
74	0xbd1a6743	-0.037696134
75	0xbdb156cf	-0.086591356
76	0xbe3115a7	-0.17293416
77	0xbc81dff8	-0.015853867
78	0x3a91f038	0.0011134213
79	0x3e2fb369	0.17158283
80	0x3d02d440	0.0319407
81	0xbdcd3fb2	-0.100219145
82	0xbda0355b	-0.07822677
83	0x3d476603	0.04868127
84	0x3de66ab1	0.112508185
85	0x3ca1f64c	0.019770764
86	0xbdaab701	-0.083356865
87	0x3d367755	0.044547398
88	0x3db13001	0.08651734
89	0xbcd254d3	-0.025675213
90	0xbd88d84f	-0.066818826
91	0x3e06fae5	0.13181646
92	0x3cffd2ed	0.031228507
93	0xbddcc4c6	-0.10779719
94	0x3d047e3d	0.032346953
95	0xbd59e15a	-0.053193428
96	0x3e0be215	0.13660462
97	0x3d5a9dd6	0.05337318
98	0x3c19f122	0.009395869
99	0x3d081314	0.03322132
100	0x3e118a8a	0.14213005
101	0xbb488e4d	-0.0030602396
102	0x3c3823fc	0.011239048
103	0x3e1bd7bf	0.1521902
104	0x3cee0fb3	0.02906022
105	0xbdf2f452	-0.11863007
106	0x3df85b35	0.12126771
107	0xbd856d0c	-0.0651494
108	0x3d91c6a5	0.071179666
109	0xbdd0854b	-0.101816736
110	0x3da6ad5a	0.08138533
111	0xbdd79ca8	-0.10527927
112	0xbe1660a9	-0.1468531
113	0xbce9f49f	-0.028559027
114	0x3d49376c	0.04912512
115	0xbe17ad78	-0.14812267
116	0x3d6030b3	0.054733943
117	0x3d6b9a7c	0.057520375
118	0x3e2a60b6	0.16638455
119	0xbd3048d4	-0.043038204
120	0xbd965313	-0.07340064
121	0xbc829a86	-0.015942823
122	0xbdc9b5bf	-0.098491184
123	0xbd204fe4	-0.03913869
124	0x3d854913	0.065080784
125	0x3e30d004	0.17266852
126	0xbc897b18	-0.016782328
127	0xbd17d7de	-0.0370711

net.4.weight f4 [6, 128]
0	0x3e0571dc	0.13031715
1	0x3e574413	0.21022062
2	0x3dbfb191	0.0936004
3	0xbe0fce4d	-0.14043541
4	0x3e247ddb	0.16063635
5	0x3e10c185	0.14136322
6	0x3e579ad0	0.2105515
7	0x3e374784	0.17898375
8	0xbda166f5	-0.078809656
9	0x3e395d39	0.18101968
10	0xbcd315c7	-0.02576722
11	0xbd5822a0	-0.052767396
12	0x3e0b8f3f	0.13628863
13	0xbe09a709	-0.13442625
14	0x3dc883da	0.09790774
15	0xbe2b6767	-0.16738664
16	0xbe24d1a7	-0.16095601
17	0xbd23bccd	-0.039974976
18	0x3e0f0560	0.13966894
19	0x3e147f3b	0.1450166
20	0x3e62c640	0.22145939
21	0x3d9bb3b1	0.07602633
22	0xbe00052a	-0.1250197
23	0x3dfc4bf8	0.123191774
24	0x3e51ae67	0.20476685
25	0xbe115ffd	-0.14196773
26	0x3e22ffc9	0.15917887
27	0x3e45ca99	0.19315566
28	0x3e1e952d	0.15486594
29	0xbba3ee0b	-0.005002742
30	0xbe49fb91	-0.19724871
31	0xbe93a483	-0.2883645
32	0x3e0e79cc	0.1391365
33	0x3dda49a5	0.10658578
34	0x3e456c2a	0.19279543
35	0x3e1fa19c	0.15588993
36	0xbe2a5996	-0.16635737
37	0x3e38abe7	0.18034326
38	0xbd9bd3d3	-0.07608762
39	0x3df32c6d	0.11873708
40	0x3e54dd2a	0.20787492
41	0xbdde058f	-0.10840904
42	0x3e48f020	0.1962285
43	0xbd09923f	-0.033586737
44	0x3e3e4018	0.18579137
45	0xbd7238b7	-0.05913612
46	0x3e0bf619	0.13668098
47	0xbe031032	-0.12799147
48	0xbe523949	-0.20529665
49	0x3e42b052	0.19012573
50	0xbd9e1158	-0.07718152
51	0x3e376bdb	0.17912237
52	0xbe028a22	-0.12748006
53	0x3e2bf8a8	0.16794074
54	0x3e018b88	0.12650883
55	0x3e3698a8	0.17831671
56	0xbe0343a0	-0.12818766
57	0x3e310f58	0.1729101
58	0x3e2b4ff7	0.16729723
59	0xbe5122a7	-0.20423375
60	0x3e3f05ce	0.18654558
61	0x3e5e7ae9	0.21726574
62	0x3e43d1e3	0.19123034
63	0xbd7d0809	-0.06177524
64	0xbe3780c1	-0.1792021
65	0x3e69593e	0.2278795
66	0x3e14fde4	0.14549977
67	0xbe256151	-0.16150405
68	0x3e08c31e	0.13355681
69	0x3e1d4ca7	0.15361272
70	0xbe902a38	-0.2815721
71	0x3e52ac1f	0.20573471
72	0xbcbabd87	-0.022795452
73	0xbe4d8d14	-0.20073348
74	0xbd1fb891	-0.038994376
75	0xbe232889	-0.15933432
76	0xbe189076	-0.14898857
77	0x3dc82a7a	0.09773727
78	0x3e53533b	0.20637219
79	0x3e28d212	0.16486385
80	0xbd382821	-0.044960145
81	0xbe20b178	-0.15692699
82	0x3dc1d8e8	0.094652
83	0xbd8a1dbf	-0.06743955
84	0x3e0fb802	0.14035037
85	0x3e155b86	0.14585695
86	0xbd807e6b	-0.06274112
87	0xbd23c5e5	-0.03998365
88	0x3e065ea7	0.13122045
89	0x3e3a74c9	0.18208613
90	0xbe000000	-0.125
91	0x3e456912	0.19278362
92	0xbc39b348	-0.011334248
93	0xbdf43ae9	-0.11925299
94	0x3e0560d1	0.13025214
95	0xbe075076	-0.13214287
96	0x3e0f7e62	0.14013055
97	0xbe480279	-0.19532193
98	0x3e392c27	0.18083249
99	0x3e25e3aa	0.16200128
100	0x3e2b8c37	0.16752706
101	0x3e319604	0.17342383
102	0xbdb3664c	-0.08759746
103	0x3e2c5965	0.16830976
104	0x3e1c7d18	0.15282094
105	0xbe0fa313	-0.14027052
106	0x3df62ad2	0.12019886
107	0x3e2ab1ed	0.16669436
108	0xbe317e80	-0.17333412
109	0xbe620c6d	-0.22075053
110	0x3e2e2cb1	0.17009236
111	0xbe3b7313	-0.18305616
112	0xbe0ba77a	-0.13638106
113	0x3e056a86	0.13028917
114	0x3e24560c	0.1604845
115	0xbe4927c9	-0.19644083
116	0xbd455e8d	-0.048185874
117	0x3e2a8010	0.16650414
118	0xbd5e353a	-0.05424998
119	0x3e370e5d	0.17876573
120	0x3e5131ea	0.20429197
121	0x3e2a4db7	0.16631208
122	0xbde0770f	-0.109602086
123	0x3e0a8c69	0.13530125
124	0xbe3230b0	-0.17401385
125	0x3e102e48	0.14080155
126	0x3e208caf	0.15678667
127	0x3e1e5549	0.15462221
128	0xbe2bf724	-0.16793495
129	0xbe095636	-0.13411793
130	0xbf069083	-0.5256426
131	0x3e5a0362	0.21290353
132	0x3e602d49	0.21892275
133	0x3c5b9bb0	0.013403818
134	0xbd1e9f06	-0.038725875
135	0x3da9a5d6	0.08283584
136	0xbe98f3fd	-0.29873648
137	0xbea3612b	-0.3191007
138	0x3e250259	0.16114177
139	0x3e083f4c	0.13305396
140	0xbdb18597	-0.08668058
141	0x3e978ac7	0.29598066
142	0x3ee8ba56	0.45454663
143	0x3d03044b	0.031986516
144	0x3e92fdc0	0.2870922
145	0xbe14f2c4	-0.14545733
146	0xbdae32c5	-0.08505777
147	0x3e8e4c9d	0.27792826
148	0xbda4e3c8	-0.08051258
149	0x3f147201	0.57986456
150	0x3e99381b	0.29925618
151	0x3e1dd79c	0.1541428
152	0x3e7f82ac	0.24952191
153	0x3e5ca2cf	0.21546482
154	0x3d913c7d	0.07091615
155	0xbe6a4223	-0.22876792
156	0xbd5ee176	-0.054414235
157	0x3dc509fd	0.09621046
158	0x3e05192d	0.12997885
159	0x3f1ec325	0.62016517
160	0xbcfece43	-0.031104213
161	0x3ea6fb56	0.3261363
162	0xbe71dd5d	-0.236196
163	0xbe57b1ea	-0.21063963
164	0xbdf434b6	-0.11924116
165	0xbe4032fa	-0.18769446
166	0x3d9cebe8	0.07662183
167	0xbe1bd3d2	-0.15217522
168	0xbd27dd18	-0.040982336
169	0xbe2c4151	-0.16821791
170	0xbe90ba2c	-0.28267038
171	0x3a0bd3fa	0.0005334016
172	0xbea95ed4	-0.3308016
173	0xbc40a0df	-0.011757105
174	0xbe9cbb9f	-0.30611894
175	0x3ec1db2e	0.37862533
176	0x3d9e62c0	0.07733679
177	0xbdd320a6	-0.103089616
178	0xbc3a2dd6	-0.011363467
179	0x3d85de4f	0.065365426
180	0xbdec1bee	-0.11528765
181	0xbce42aca	-0.027852435
182	0xbea0b71b	-0.31389698
183	0xbe5acb9e	-0.21366736
184	0xbe5efec9	-0.2177688
185	0xbe85c905	-0.26129928
186	0xbe5ae270	-0.21375442
187	0xbf3afc15	-0.73040897
188	0x3e210757	0.15725456
189	0x3de9fd88	0.114253104
190	0xbe2c5632	-0.16829756
191	0xbdf7b1ed	-0.120944835
192	0x3df78e48	0.12087685
193	0x3c88eb01	0.016713621
194	0x3e3bdaa3	0.18345122
195	0x3e300634	0.17189866
196	0x3ec440d0	0.38330698
197	0xbc67ce7c	-0.014148351
198	0x3f1106a3	0.5665075
199	0x3e03c5d9	0.12868442
200	0x3d385307	0.045001056
201	0x3eb5158c	0.35368
202	0xbdef0911	-0.11671651
203	0x3df249e9	0.118305035
204	0xbe6153de	-0.22004649
205	0x3ec8fbad	0.39254513
206	0x3d374130	0.044739902
207	0x3ccb12b8	0.0247892
208	0x3dbf434f	0.0933901
209	0x3e3797ac	0.17928952
210	0xbeb5e2c7	-0.3552458
211	0xbdd75976	-0.1051511
212	0x3db5969a	0.088666156
213	0xbbeb0439	-0.0071721342
214	0x3cc316f6	0.02381466
215	0x3cef23a4	0.0291918
216	0xbd626a39	-0.055277083
217	0x3abc09aa	0.0014346142
218	0x3eb64109	0.35596493
219	0x3e7d2349	0.24720491
220	0x3ee33e0c	0.44383276
221	0x3e854e5d	0.2603635
222	0xbebd9d21	-0.37033942
223	0xbc9f5003	-0.019447332
224	0xbda72706	-0.0816174
225	0x3eb3d026	0.35119742
226	0x3e02402f	0.12719797
227	0x3e3918f7	0.1807593
228	0x3ea14d8a	0.3150447
229	0xbe4c71b2	-0.19965246
230	0xbef5b207	-0.47987387
231	0xbd76f3bc	-0.060291037
232	0xbed686dd	-0.41899768
233	0xbe261b62	-0.16221383
234	0x3e9f4e39	0.31114367
235	0xbe84d8c8	-0.2594664
236	0x3d5abd2d	0.05340307
237	0x3e0351f1	0.12824227
238	0xbe500117	-0.20312916
239	0x3e7ffb8a	0.24998298
240	0x3d9eebad	0.07759795
241	0x3e4ac9c8	0.19803536
242	0xbddccdac	-0.10781416
243	0x3e6812f6	0.22663483
244	0x3df4dee9	0.11956579
245	0xbe5c389a	-0.21505967
246	0x3f099bc2	0.5375329
247	0x3d20558d	0.039144088
248	0x3c5339b8	0.012892179
249	0x3e79c8ce	0.24393007
250	0x3e59b333	0.21259765
251	0xbeb1edb1	-0.34751657
252	0x3e8fe631	0.2810531
253	0x3e3ba2af	0.18323778
254	0x3e9b2c3e	0.30307192
255	0xbaa7a077	-0.0012788911

net.4.bias f4 [6]
0	0x3e02150d	0.12703343
1	0x3ddcdbe1	0.10784126
2	0xbd7b053a	-0.06128428
3	0xbd895057	-0.06704777
4	0xbd253d5b	-0.040341716
5	0xbddc5045	-0.10757498
